FacialLandmarkFrontalization_66/data/frontalization_weights.npy (npy, 140576 bytes, 1 tensors)

array f8 [133, 132]
0	0x3fcc0c589b8c7e9d	0.21912677378803816
1	0xbf94bf2d5d61f2e0	-0.020260533165571526
2	0xbfa35bb4f4aed0ec	-0.03780904280520922
3	0xbf84d733a2a087c6	-0.010176089668735854
4	0x3f97513e26364a90	0.02277085407474516
5	0x3f9c2c17f56afbdf	0.0275119536915972
6	0x3fa5bfcd15241fb1	0.042478951292707186
7	0x3faa98df17b1a350	0.05194756664497524
8	0xbf70dd7d8c8754df	-0.004117479730173928
9	0xbfacee8fc62102e6	-0.05650758069578447
10	0xbfabd2931d163b93	-0.05434093217910809
11	0xbfa20d7f2ab46d38	-0.03525922199534154
12	0xbf88c282bd0c1940	-0.012089749712242637
13	0x3f87a71ce39e3c2a	0.011549211212495154
14	0x3f8db74adba90e6a	0.014509758785727207
15	0xbf8d1daab958deb8	-0.014216741353365023
16	0xbfc52b3385ef5e20	-0.16538089790150057
17	0xbfac9f1acdca67f4	-0.05590137254803543
18	0xbfb387967ee9e7bc	-0.07628765676955046
19	0xbfb3efbcd5fdc061	-0.077876856082868
20	0xbfb413cf3fb36a23	-0.07842726998516318
21	0xbfb222c32d88a2b4	-0.07084293233550448
22	0xbf88e147ba3bfa9b	-0.012148437853736474
23	0x3f7a662e682430b2	0.006445103909083526
24	0x3fa1d08f2715772d	0.034794305344560385
25	0x3fb09031f74bb1ad	0.06470024383060631
26	0x3fb92cedf3bbbe5c	0.09834181976815998
27	0xbfa52c7858455a1c	-0.04135490491414748
28	0xbf9ce0a8735f4a3b	-0.028200752298128
29	0xbf85993b066ed0f8	-0.010546170362296867
30	0x3f884ff9e4a4d38b	0.011871292390972751
31	0x3fa57b012e4e08ac	0.04195407572025664
32	0x3fa0cab371c1f06f	0.0327964855541446
33	0x3f93fb7ee521d134	0.01951406739722579
34	0xbf70c228d8e39ac5	-0.004091414985146262
35	0xbf8fc9660d81b525	-0.015520856177512041
36	0xbfaee2e93be0b2c5	-0.060324944075863786
37	0xbfac4de4ed0f0d4f	-0.05528178590568677
38	0xbfa9c813c956ecbc	-0.05035459358938385
39	0xbf9a4803912edb42	-0.025665336357373343
40	0xbfa8a07fe8dd8c60	-0.04809951512904642
41	0xbfac6846d88a7c14	-0.055483068402502195
42	0x3f9a453eb7b05b67	0.02565477367542304
43	0x3faa19a5dcee8acc	0.050976927966322444
44	0x3facb28b66f586ee	0.05604968673539
45	0x3fb1652b997f1652	0.06794998643371145
46	0x3fad100b6aa29288	0.05676303555199974
47	0x3fa5b01d8342955e	0.04235927798553506
48	0x3f94c55dadb5ed8c	0.02028414128061011
49	0x3f982435cf4c448a	0.023575630929432857
50	0x3f9f3ee4d72c55b8	0.03051335871994862
51	0x3f7ba88b79813990	0.006752533743635061
52	0xbfa277bd1c083348	-0.03606978385150811
53	0xbfa26ee990eb5b93	-0.03600244421038847
54	0xbfb07554da50dce6	-0.06429033594109831
55	0xbf9aed74c3a9a09f	-0.0262964481757143
56	0xbf61ba64085ff181	-0.00216407334937524
57	0x3f9c2b72ca93644b	0.027509492506258486
58	0x3fa724965f8a4a8b	0.04520101467382628
59	0x3fa803167777bf3f	0.04689855774256423
60	0x3fa154f87ef67cc2	0.03385139989699716
61	0x3f833011b705e9ec	0.009369028470918438
62	0xbf9de5c6b2bb2aae	-0.029196839007264934
63	0xbf8ae3ae7333e260	-0.013129580393511364
64	0x3f980de7d23a15cf	0.02349054546950474
65	0x3fa40b25c5190468	0.039147548970967005
66	0x3d0747a01f038bde	1.0338302216448131e-14
67	0x3cfc7dd741f6b08c	6.326398476505458e-15
68	0x3d01a4285b35332f	7.83428468230507e-15
69	0x3d0723b0c24f1662	1.0275964913915054e-14
70	0x3d115cf318af276f	1.5421516825351213e-14
71	0x3d0d1a261c353018	1.2923948140696503e-14
72	0x3d0312565f3b261b	8.469505289131393e-15
73	0x3cfaa0aee605f7f3	5.912530185393469e-15
74	0x3cdad86c20fcc628	1.4902190545685272e-15
75	0x3d051022252c6565	9.353860359400889e-15
76	0x3d027d4daf327c9f	8.21097262152538e-15
77	0x3d113b6ff86c2712	1.5305247986957836e-14
78	0x3d08df7f1db9d773	1.104584574385792e-14
79	0x3d01508d3f842b5e	7.689251579955823e-15
80	0x3cfdf4f7d0b3628d	6.6517694375780295e-15
81	0x3d01970f140946c0	7.811561986631979e-15
82	0x3cf7d45bd52114c7	5.291217742463846e-15
83	0xbcfbba4473d393ae	-6.156765542153937e-15
84	0xbd173542564563d8	-2.0612883375500333e-14
85	0xbd21cbddf3342165	-3.161267769948683e-14
86	0xbd275fff90c50199	-4.1522329343999465e-14
87	0xbd26122b592f2fb7	-3.920592551716863e-14
88	0xbd252f79dfa0db2d	-3.763292503003262e-14
89	0xbd27c420b96e22ab	-4.2217117506297414e-14
90	0xbd217e0ea1bee12e	-3.107276349794096e-14
91	0xbd1c6aab6e630779	-2.5239080454484546e-14
92	0xbcfcebb64162f417	-6.4216964516973644e-15
93	0x3d240a3edff2fa58	3.5598229951948145e-14
94	0x3ceffbf61cdc0c1b	3.5509622056421253e-15
95	0xbd24507f9fa50607	-3.6085707545247194e-14
96	0xbd31ddce421081e1	-6.347430491721029e-14
97	0x3d142c3c23a9d334	1.791703909952139e-14
98	0x3cfcb1a215f01c45	6.371321133220749e-15
99	0xbcf6e5bab561bc47	-5.084239739430649e-15
100	0x3cfa7472cf8fd2c6	5.874162683739098e-15
101	0x3d13fcb197666c6f	1.7752097418555452e-14
102	0xbcfb64fc510ec137	-6.082795388774394e-15
103	0xbcf211a59a7ef3e2	-4.012109124677883e-15
104	0xbd0673a130dd3df5	-9.970548088300083e-15
105	0xbd1cbb00ef826eea	-2.5517795011146448e-14
106	0xbd12e04ed9612ccd	-1.6765436276937704e-14
107	0xbd09e9fbf7bc9f46	-1.1508128215850884e-14
108	0xbd20706231464984	-2.92015270601111e-14
109	0xbd0efa80fbbe8113	-1.3757231189846421e-14
110	0x3cd474fc6902a4a1	1.1355903147795466e-15
111	0xbce94a473ab40e41	-2.807770613013107e-15
112	0xbcf7fea22b8109ba	-5.327885247845965e-15
113	0xbd0aba6f899337c0	-1.1869733829472242e-14
114	0x3d3498413b7a54cc	7.31672335747844e-14
115	0x3d21d2c369b01b33	3.166053066535891e-14
116	0x3cfd5ebc7dbe084c	6.5214641791588235e-15
117	0x3cfb2bb3cba10efd	6.033110058308742e-15
118	0x3cfcb9f5f7380ab0	6.378544223632112e-15
119	0x3d23659ac3dafb2f	3.4455803148260043e-14
120	0x3d343b91ad95013d	7.188096027985047e-14
121	0x3d115d44c291fd42	1.542262357374479e-14
122	0xbd026c5af7d4f9f7	-8.181572336485453e-15
123	0xbd102e4ed6f88c51	-1.4371517752574258e-14
124	0xbd0a8968cda417d6	-1.1784686746994214e-14
125	0x3d07be1b39c149db	1.054383377486664e-14
126	0x3d1b437bea8a3707	2.4214949654963505e-14
127	0x3d209e46a4243f69	2.9519969400190314e-14
128	0x3d221461915d52fa	3.2115845568621054e-14
129	0xbd1377c523ac0351	-1.7290925897890622e-14
130	0xbd19212b75d7a83b	-2.231954123911059e-14
131	0xbd130a767d12c098	-1.691169026334912e-14
132	0x3fd730b9bedb0eb7	0.36234897268534944
133	0x3fe14af229926944	0.5403986751510179
134	0x3fd32cdb514ce14a	0.2996128362606397
135	0x3fc59195fe3e1620	0.1685054294031696
136	0x3fb091157c936f80	0.06471380511669445
137	0x3f42422ed351ef00	0.0005572060241685051
138	0xbfaf2d26444434ca	-0.06089133818941546
139	0xbfc0b9c702741146	-0.13066947574419369
140	0xbfb64430929b223d	-0.08697799281356651
141	0xbf9d327fc4ddb7d4	-0.028512951269867262
142	0xbfa4f1b130977260	-0.04090646474989934
143	0xbfad22fe9df708d0	-0.05690761259349275
144	0xbfb59db676698272	-0.08443775549813795
145	0xbfc062a68ebc84ff	-0.12801057786513323
146	0xbfc9706b2fc4017c	-0.1987432463865949
147	0xbfd471183a813b13	-0.3194027491889965
148	0xbfc91705685d7972	-0.19601504894212557
149	0x3fd7ec6130e696e5	0.3738024690195359
150	0x3fd2d46197929ecc	0.29421272089028316
151	0x3fcee499973274e5	0.2413513172404357
152	0x3fc68f08a2ed0b46	0.17624004321450054
153	0x3fc1be0ee8c1c280	0.13861261715966933
154	0xbfc3eba95c0b6db8	-0.155629320090936
155	0xbfc7035cccf28e57	-0.1797901154251231
156	0xbfcfc94f6f068128	-0.24833100243723405
157	0xbfd2adde15492bd9	-0.2918620307797802
158	0xbfd707915c6be0cf	-0.35983690286185505
159	0x3fa8be3789635359	0.048326240082735956
160	0x3f9a32c9578d33da	0.025584360092853455
161	0xbf865fdb538db246	-0.010925019728994855
162	0xbfa77ae43a2bc760	-0.04585946283431386
163	0x3fa3773423aa3774	0.03801882682192473
164	0x3f877c8cd713e45a	0.011468029321337326
165	0xbf934f325d1820d0	-0.018856799060842644
166	0xbfa1469b1509db1a	-0.03374180442636128
167	0xbfa82879d5578fdf	-0.047183806698541046
168	0x3fd5a508c1f68878	0.33819788877202184
169	0x3fd19efe601d5e1c	0.2753292025203977
170	0x3fcaf32fc8ec36f0	0.2105464678829132
171	0x3fc647b0c5a86cde	0.1740628209234733
172	0x3fcd3dbdbd1717fc	0.22844669087334057
173	0x3fd315ce72693500	0.2982059590620594
174	0xbfc6927d07af8b08	-0.17634547114638388
175	0xbfcc0f1d4e0e2d86	-0.2192112570886417
176	0xbfd25e1a9bba3e7b	-0.28699364860310767
177	0xbfd635d84fe5914e	-0.3470364361039814
178	0xbfd306d5eb375983	-0.29729221315701454
179	0xbfcc5643a212bb2b	-0.22138257421235016
180	0x3fc04710270491c4	0.1271686735646097
181	0x3fab8427703f14c2	0.05374263043590012
182	0xbf90890dabef4f91	-0.01614781724840914
183	0xbf8c994e7132f364	-0.013964283780632143
184	0x3f98822becc12d9a	0.023934065175394183
185	0xbf8a623c28db39b4	-0.012882680889927701
186	0xbfa8c9dba4ff20fc	-0.0484150542175161
187	0xbf9ed4cdb6a4d1ac	-0.030108656189627034
188	0xbf87432aca2207ee	-0.011358579915626135
189	0xbf9f5ee89621f448	-0.030635484851235156
190	0xbf92b9b71879e8a8	-0.018286572331341816
191	0x3fa5c01b3e8a02b0	0.04248128069321433
192	0xbf954371465f16b0	-0.020765085144168693
193	0xbf8c9d14e55d61be	-0.013971484422356958
194	0x3f92994ab0581344	0.018162886632143285
195	0xbf29d97922365a00	-0.00019721606905127864
196	0xbf98eca410a4c085	-0.02434021331390614
197	0xbf94f7d81208f659	-0.020476699925202933
198	0x3d2c160c57ea38cf	4.989098173809993e-14
199	0x3d334dce4e9bc9db	6.858133348679553e-14
200	0x3d227e1a53e4b657	3.284943735506894e-14
201	0xbd0c763e53fe2ee4	-1.2639617597582485e-14
202	0xbd3421b56562a6f7	-7.1522074072514e-14
203	0xbd37fd4ddbbcc3db	-8.522771563734931e-14
204	0xbd47bc11fa0fc719	-1.6864482648947497e-13
205	0xbd4f7ead5a29cd3f	-2.237842454964221e-13
206	0xbd4a9e57ddf92fea	-1.891360188131823e-13
207	0xbd4c85c574deb002	-2.0266486584882122e-13
208	0xbd3eb7ce7b504260	-1.0913223892787372e-13
209	0x3ced578f29a65ae0	3.2576195340537806e-15
210	0x3d30b8185e255e80	5.939825279623815e-14
211	0x3d3b5dd2259b2a9f	9.722529567995684e-14
212	0x3d41bc78b999015e	1.2602340232469882e-13
213	0x3d421aaa7034dd08	1.2863781636105685e-13
214	0x3d3d018ba3c303ff	1.0305014435602685e-13
215	0xbd22be670005f847	-3.32956047740101e-14
216	0xbd05d1d9049d51d2	-9.689901184672486e-15
217	0x3d22c92882a86cc5	3.337023882000664e-14
218	0x3d3b87b2156d3310	9.780642461825425e-14
219	0x3d45401a2b289edf	1.5099316855307925e-13
220	0x3d44b1cf7948fd8d	1.4704377838720266e-13
221	0x3d3b725fff04fb52	9.751054110049485e-14
222	0x3d1a3725ea8c2d69	2.3283972354910336e-14
223	0x3d0ddc1974f37549	1.326039875262358e-14
224	0xbd12396490a66a27	-1.6186332941289487e-14
225	0xbd0742f1fb548cc0	-1.033018330814514e-14
226	0x3d126e5232404386	1.6369964686811344e-14
227	0x3d32645b50b973d8	6.534157521313694e-14
228	0x3d39ba7c1b27288b	9.140583830559886e-14
229	0xbd338d524dc3b11c	-6.946278967427527e-14
230	0xbd02a98850fc0ffa	-8.28769776023283e-15
231	0x3d136ae0175a971c	1.7246188353635913e-14
232	0xbcf22815d4027224	-4.031571314860755e-15
233	0xbd2f0b159eb1367c	-5.5143975862685516e-14
234	0x3d3154276ef5d49d	6.156400440645357e-14
235	0x3d1ce2be5176c542	2.5655670055570144e-14
236	0x3d0c35f3743d6c47	1.2528087928923405e-14
237	0x3d15e871dc4a9e8a	1.9458201604258437e-14
238	0x3d22d83f920fa2a6	3.347494727568805e-14
239	0x3d2f4df0d2dd217e	5.5607884391115967e-14
240	0x3d20e33145611f5a	2.9998173840080324e-14
241	0x3d16549ca5d1dfa9	1.9833481750031332e-14
242	0x3cf70bd731df078e	5.117296000768187e-15
243	0x3d2eca69dd646fb8	5.469523122212424e-14
244	0x3d26829331e7974f	3.998589640115795e-14
245	0x3d144f4771eba052	1.8038622963531478e-14
246	0xbd01ee5656ebe7ce	-7.962965814194357e-15
247	0xbd2e3fecac3c004d	-5.3734270526795604e-14
248	0xbd16f8945fb2809d	-2.0402358917677904e-14
249	0xbd16070be9712f88	-1.956437279818869e-14
250	0xbd00a0ac4a160386	-7.384150592132573e-15
251	0xbd24e4132be32ca9	-3.710972424088703e-14
252	0x3d16788b91852297	1.9958150372679664e-14
253	0x3d0d2acce6a54148	1.2952833934549036e-14
254	0x3d11f414c499ae8c	1.5945859649656192e-14
255	0x3d17886a1e74919e	2.0901386618739758e-14
